models/pretrained_model.ckpt (torch, 24106 bytes, 41 tensors)

model.weighter.0.weight f8 [7, 2]
0	0x3fea2bf47875a910	0.8178655960776116
1	0x3fa4774368ce17d1	0.039972406905732456
2	0xbfc3051a7a93011b	-0.14859324441022967
3	0xbfa1a73aa3c0aebc	-0.034478981484736576
4	0xbfd7e38f82a0adc2	-0.3732641959820421
5	0xbf89da51f20d4781	-0.01262344379361813
6	0xbfd8ad45e74f5095	-0.3855757483372682
7	0xbfbc0fdd89825593	-0.10961708647876937
8	0x3fce3339ad746e48	0.23593827218506846
9	0xbfcea9d87e141b2d	-0.23955827861956305
10	0xbf43ae152562ec47	-0.0006005862476493672
11	0xbfcd2b5348945edc	-0.22788468402790485
12	0xbfd2b7a95379e469	-0.2924598040768332
13	0x3fbd1a3740087ec2	0.11368127167997513

model.weighter.2.weight f8 [7, 7]
0	0xbf9b87685f65cd6f	-0.026883726904498525
1	0xbfa00f2843d91baf	-0.03136564090942017
2	0xbfabdd62717d5dc4	-0.05442340503094159
3	0xbfb9338bde8d4260	-0.09844278510468873
4	0x3fa1c0c352f56d1f	0.03467378986052893
5	0x3fb85f5e597bc567	0.09520520863204283
6	0xbfb8c79d677d77d2	-0.09679588104833606
7	0xbfb034f909958b9c	-0.06330830081928557
8	0xbfd3d2de0090b65c	-0.309745312263521
9	0xbfb782ec0c227981	-0.0918414620996142
10	0xbfbe77b84cfd67a7	-0.1190142810786755
11	0x3f94f09f8315e8ec	0.020449154258565125
12	0x3f9df44fbeab7b02	0.02925228692299254
13	0xbf90566b3a04f492	-0.01595466176626254
14	0x3fb4ac0aab1b6942	0.08075014760416813
15	0xbfc1e4b81572117c	-0.1397924523081534
16	0x3fb2d6dc2b1d8a4c	0.07359100391980994
17	0x3f5f553d4152ca0d	0.001912412471295813
18	0xbfd2c77d795e399c	-0.2934259114489579
19	0xbfbe47865127ae82	-0.11827887994120981
20	0xbfc83fa71615f33a	-0.1894425256577053
21	0x3fcd6b64ced1a5b2	0.22983989809590138
22	0xbfa1354325725630	-0.03360948402511743
23	0x3fa15516c211a7a3	0.0338523017788497
24	0x3fec8bea3173e6c9	0.8920794454454263
25	0xbfe3fa2bae61875c	-0.6242884069326737
26	0xbfb05b2bbdbb13c0	-0.06389115697955017
27	0xbfd47a68563f4bf3	-0.31997116491873995
28	0xbfb79472efe905a6	-0.09210890156921056
29	0xbfbbe97b7a28f40d	-0.10903140766545523
30	0xbf8a1b7d24308bd6	-0.012747743288917517
31	0xbfa6a19a347ee7e3	-0.04420167818848577
32	0x3fb25e859ecc2def	0.07175479056257193
33	0xbfc2d15b83c7ae93	-0.14701408323832207
34	0x3fc39b1f5d8a5392	0.15317146365546513
35	0x3fd8f8794b008b9a	0.39016563724924824
36	0x3f75826b3ea14e0b	0.0052513303035826115
37	0xbfb7fcff8a8a9a73	-0.09370419628485553
38	0xbfc36778eab9c2a2	-0.1515952249642583
39	0xbfcd64c10ca0f4df	-0.22963727108609697
40	0x3fb7ebe64a622fdb	0.09344329181675397
41	0xbfb2d9a6f1d9fcfc	-0.07363360790803947
42	0xbfb8e43a563a4fbc	-0.09723248105211629
43	0x3fb7f6f3a9f72f3c	0.0936119356112472
44	0xbfc83cb399402d23	-0.18935246451324259
45	0x3fa0199ba6d150c3	0.031445373643380424
46	0xbf9ea20cfef01027	-0.029915049610295476
47	0xbfc2429b2b2d7eb7	-0.1426576577023206
48	0xbfbb1e102ef840f8	-0.10592747828218652

model.weighter.4.weight f8 [7, 7]
0	0x3fc620253fdb3a92	0.17285600297914933
1	0xbf9a0aaf3ad64adb	-0.025431383100633958
2	0xbfdbec97ac01f39e	-0.43631545827502716
3	0x3fb96f24a75fd5d1	0.09935216032302853
4	0x3fbf47de06fde628	0.12219035788248134
5	0xbfd173ec720f72c2	-0.27270041598039196
6	0x3fc4a85676c33a31	0.16138726042704968
7	0x3fb8b96a3c4511cb	0.09657920810156566
8	0xbfa649add506160d	-0.043530876401785525
9	0xbfd4bd6553cf8011	-0.3240598028623945
10	0x3fd3e07acebb8bb8	0.3105761546013883
11	0xbfabae60590a6bef	-0.05406476103708956
12	0xbfd53d2fd070d628	-0.33185954433006026
13	0xbf5512a20429a568	-0.001286180705074658
14	0xbfbcde95c02eacfb	-0.11277137700988142
15	0xbf5aacbf1e292c84	-0.0016281000504417007
16	0xbfbd924c5956ec97	-0.1155135839571123
17	0xbfb723afcfab6d13	-0.09038828678187753
18	0xbf9e982d2882b4a6	-0.029877381894654186
19	0xbfa58bc1ce0363a3	-0.042081886671162104
20	0xbfbb212d165b582c	-0.10597497745342882
21	0xbfa126a7b1fcdff8	-0.03349803970053239
22	0x3f78330195fb795b	0.005908018297957031
23	0xbf6f806b3393689d	-0.0038454145220444117
24	0xbfa3ca424bbd08eb	-0.038652488465702316
25	0xbf9a13ec5e7c5335	-0.025466626421876987
26	0xbfc2c769a753da47	-0.1467105929402399
27	0xbf7fc25bfcec03d0	-0.0077537148742985035
28	0x3fbe7f1081133e5a	0.11912634993790885
29	0x3fc20d9ab5f1ab58	0.14104017147050274
30	0xbfc570ff469b0469	-0.16751089999710025
31	0xbf724d9364873abe	-0.004468513252915583
32	0xbfc57f9756bfec2c	-0.16795627342057295
33	0xbfbb81d80da26448	-0.10745001156682676
34	0xbfc42badf62443b6	-0.1575829936851087
35	0x3f966feae617d777	0.02191130666138671
36	0xbf925c91c5b38a2a	-0.01793124932454241
37	0x3f8129aaa411debc	0.008380253917706575
38	0x3fd813c11d04448d	0.37620570977839735
39	0x3fa45ad3de5f7f34	0.039755459685464706
40	0xbf76e7e558e1f744	-0.005592246901981405
41	0xbf977fb5492f3fa0	-0.02294810542281278
42	0x3fc294f1f48caa31	0.14517044487850364
43	0xbfa12186c75f5675	-0.03345891174073482
44	0x3fb88c21efa97624	0.09588825322267575
45	0x3fdcfaf38472fa7e	0.4528168481300908
46	0x3fc7e8da6d7b5651	0.1867936167315514
47	0x3fc5bcf7de9c00e4	0.1698293530425935
48	0xbfa102a28fa5a0c0	-0.03322322848799919

model.weighter.6.weight f8 [7, 7]
0	0x3fa26c8c9c6833bd	0.03598441514268511
1	0xbfb70b3420717ef2	-0.09001470367502032
2	0x3fab063ee317b259	0.05278202554822959
3	0xbfc1a9931b18990e	-0.137987507086287
4	0xbfae21ff31e166bd	-0.058853125418591536
5	0x3fb179ad123ea36f	0.06826287932802953
6	0x3fd63baa225c6fdf	0.34739163737844864
7	0xbfc12e2f1988707c	-0.13422192332007288
8	0x3fa4c2e6ef597905	0.040549484937161075
9	0x3fb22aa53e4dc110	0.07096321841322983
10	0xbfc2de20198d7e4b	-0.14740372893992268
11	0x3fc0c3fc9299474f	0.1309810367407018
12	0xbfd6fc99b9d5d385	-0.3591675104901742
13	0x3fc1663f0a99e886	0.13593280809056213
14	0xbfb074572d04a5c9	-0.06427521561695139
15	0x3fa56d5d3dc14eba	0.04185000780912902
16	0xbfc3dfcf679c2e78	-0.15526764449201713
17	0xbfc20303a11e2428	-0.1407169853885375
18	0x3fb0bbf4b47a26f9	0.06536797910862537
19	0xbfc0541726b76605	-0.12756623640488854
20	0xbf90ce4070a51a3b	-0.016411787867833132
21	0x3fd4391b793a4af5	0.31598555410998524
22	0x3fccf27583407d94	0.2261492625120637
23	0xbfc0cb32c58306c3	-0.1312011207974618
24	0xbfbc78c082dcd6c5	-0.1112175292481324
25	0x3fbe22de54712e77	0.11771955071997718
26	0xbf8a9bc608c8bde7	-0.012992427008696473
27	0xbfa08153125a971f	-0.03223666762396093
28	0xbfbfafda0071b318	-0.1237770320019077
29	0x3fa188d1b24a2688	0.03424697209727606
30	0x3fa9e607a976a8e5	0.05058311408659381
31	0x3fa64ac0b9cc687b	0.04353906887099953
32	0xbfc1bd79315d9ae1	-0.13859476957733022
33	0x3fbdca815053c68a	0.11637123309244593
34	0xbfc3ebe753366b22	-0.15563670695413473
35	0xbfd5203b033bd424	-0.33009219470779017
36	0xbfd168732460aaf3	-0.27200010826588467
37	0x3fa7ba0541913423	0.046341099027451337
38	0xbfc009b8145e2f3b	-0.1252966021969487
39	0x3fc2e706bae1458b	0.1476753628253785
40	0x3fc58dfe5ba6137f	0.1683958003524388
41	0x3fc2e5334baefc6b	0.14761964030728633
42	0x3fc10c1f22f3ce4a	0.13318242270144004
43	0x3fdbafb6ac40a5e1	0.43259970494781724
44	0xbfa2f42cf0e79d49	-0.03701916161281333
45	0x3f8f75b010456996	0.01536119031577669
46	0x3fb60a930bd681f8	0.08609885252963767
47	0x3fb46b29e5517833	0.07976018761243679
48	0x3fad306b5ed13198	0.05701003582416603

model.weighter.8.weight f8 [7, 7]
0	0x3fb56c891aedb84c	0.08368737132488596
1	0x3fc9d0a968e185d4	0.20168035145893148
2	0xbfa97eb118d2170d	-0.049794706611505736
3	0xbfc21c2dec3093ff	-0.14148496658995666
4	0xbf9b26db089ac42a	-0.026515409851246265
5	0x3fcf168d5e811782	0.24287573923555433
6	0xbfbfbc875878b4c3	-0.12397046956967288
7	0xbfd7e505d1a3adcc	-0.37335343811602395
8	0x3fabd34e0d8e0fb3	0.054346503405241185
9	0xbfc1d70391b7b8b9	-0.1393742047798179
10	0x3fc4e2f56df226c6	0.1631762301297412
11	0xbf78f9cf95302a35	-0.006097613210850163
12	0x3fa090b9929e38fe	0.03235416331073003
13	0x3f9b3b3de9f3e46d	0.02659317722734438
14	0x3fe22ff12513b11b	0.5683522915037743
15	0x3fb42ec67dfb6c3f	0.07883873534903872
16	0x3fb202252f5b0c04	0.07034523397582865
17	0x3fbb260d32f433a3	0.10604937070838942
18	0xbfcf15c2737a4bb1	-0.24285154951630042
19	0xbfa4da47db1fd223	-0.04072784948212795
20	0x3fd42a5a56ae1e28	0.3150850149617974
21	0xbfbcbc0331a85a20	-0.11224384271950116
22	0xbfb9486c523c373f	-0.09876133926101448
23	0xbfb3a7784969c6c8	-0.07677413742365069
24	0xbfa0b8f51789a862	-0.03266111290288688
25	0x3fc33cd4bb4a5d83	0.15029391427081515
26	0xbfbf2c677ea4ebec	-0.12177130548381826
27	0xbfab77bfaf38bb16	-0.0536479855912743
28	0x3fc6b53bbdf6d10e	0.1774058034476486
29	0x3fc19fd2a659fb26	0.13768990633612893
30	0x3fb63ec28ee95c63	0.08689514149715331
31	0xbfe165da3c44a476	-0.5436831643211366
32	0xbfdc75ab3f01eaaa	-0.4446819415385713
33	0x3fcae4f3ab66019f	0.2101120554834894
34	0xbfa8ee696fd07532	-0.04869393815918456
35	0xbfb82f4e8aadfa0b	-0.09447184453708972
36	0x3fc474948f180403	0.15980774867060185
37	0x3fbd68551a5ebc84	0.11487323659706489
38	0x3fc2ce29c6c145f9	0.1469166012271186
39	0xbfc6201cbc66403c	-0.17285498809042277
40	0xbfdfe18381a12d67	-0.4981392637170842
41	0xbfaee0914825ecdf	-0.06030706411089581
42	0x3fc00608a35addbf	0.12518413521114088
43	0x3fc5c155f5a75d33	0.16996263975918566
44	0x3fb37126df1e78b5	0.07594531008951118
45	0xbfd2e2d6a2606d95	-0.29509511811348804
46	0xbfb9b3ae920fa5b7	-0.10039797845788355
47	0x3fcf71f1c11445ef	0.24566480567641188
48	0xbfb85f8045617e42	-0.0952072305094527

model.weighter.10.weight f8 [7, 7]
0	0xbfd298fea06a0935	-0.29058805146646033
1	0xbfd1ba303ce4a42d	-0.2769890398654436
2	0x3fc86eaff4246770	0.19087790890699408
3	0xbfb275d57120b208	-0.07211050044924872
4	0xbfd6a21f5268545d	-0.35364516303645194
5	0xbf838066c21d3f2b	-0.009522249983688965
6	0xbfc9c17134c577fb	-0.2012158878014246
7	0xbfd7e851c6a67eea	-0.37355465316248504
8	0xbfb3a23242b829fe	-0.07669366959468246
9	0x3fd4c29750c41f0e	0.32437689673723547
10	0xbfbd880f60f74d2f	-0.11535736195883282
11	0xbfd74bfdfea996d2	-0.36401319379215835
12	0xbfb37a7a80ce0c9e	-0.07608762402201072
13	0xbfdb4d35c7c8fced	-0.4265875292803248
14	0xbfc856c45a5755f2	-0.19014791880788057
15	0xbfd8b9d58308886f	-0.3863424090978986
16	0x3fc807e58e4b572b	0.1877409882351285
17	0xbfa800b0e12a1994	-0.04688027142133247
18	0xbfd1b5765cb07a99	-0.27670058299728734
19	0x3fc6132f357a1a40	0.17246046172313534
20	0xbfd756252a84a582	-0.3646328845230401
21	0x3fb0e410b3a65548	0.06597999940853072
22	0xbfc4af4101cc1995	-0.1615983256126127
23	0x3fd5160bd51429a3	0.3294705944869298
24	0x3fbfd57374119268	0.12435075362879788
25	0x3fd23600aa448497	0.28454605701160446
26	0xbfc5d3fd22f599d1	-0.17053188521386045
27	0x3fa2a48b5ad0e81d	0.03641162379831562
28	0xbf76ea8527d2d507	-0.005594749583157871
29	0x3fb2f22b38cba400	0.07400770317657646
30	0xbfc39764ffe62b54	-0.15305769438813377
31	0x3fae8da365ae58bd	0.05967436424468662
32	0x3f9a90e9498b2231	0.025943417657602722
33	0xbfa04d60ad843f7b	-0.03184034460184556
34	0xbfc22221a9b0240d	-0.14166661057996102
35	0xbfbfa1d3a8d792df	-0.1235630309307214
36	0x3fc4a36d74647872	0.16123741324640012
37	0xbfa86698efd39c19	-0.04765775611468132
38	0x3fac77676e6892e3	0.05559848044166473
39	0x3f8ae0f6915d20ea	0.013124395667219752
40	0xbfb18f3c935c63a0	-0.06859186742475609
41	0xbfc530c66f30061b	-0.16555099896508882
42	0xbfc018d1c133bd1d	-0.12575742658325675
43	0xbfb44406cdd031aa	-0.07916300320375194
44	0xbf81e376248c30e0	-0.008734629621834633
45	0x3fbf32e0c152b749	0.12187008590509864
46	0xbf7198c1bf41c9bb	-0.004296070885276777
47	0xbfd05fbabc6e3ddc	-0.25584286118916366
48	0xbfd0f98b4ae095db	-0.26523096382365247

model.weighter.12.weight f8 [7, 7]
0	0xbfbc423dcbc2f332	-0.11038576340338294
1	0xbfaa53c0e40fbfc5	-0.051420238341847425
2	0x3f9a8823ba59353d	0.025909956215675257
3	0xbf763a8023c1e52f	-0.0054268842178484674
4	0x3fc050fcc9dbe678	0.1274715409888818
5	0x3fc61d549f3f1437	0.17277009750083192
6	0x3fc6042839d8f6c0	0.17200186562143038
7	0x3fcffd04ec8cdbcf	0.24990903425506736
8	0x3fd6d7e4a4c5a6d3	0.35692707148573993
9	0x3fc9248446f93a37	0.19642690148835282
10	0x3fd7a5b63174f6b1	0.3694892390229639
11	0xbfa7a3a97e48a2b6	-0.04617051760243866
12	0xbfc98a575b293aca	-0.19953433943961435
13	0xbfbf74e3b1ebbb60	-0.12287734121103489
14	0xbfd018a144572fe2	-0.25150329278835504
15	0xbfbe665d4553cc32	-0.11874945585786703
16	0xbfd2796188fcb36e	-0.2886585080876135
17	0x3fd23878cd88bc3e	0.2846967703980602
18	0x3fc5b24575ab66b3	0.16950290914137653
19	0xbfbef710cf0a7c1f	-0.12095742277823306
20	0xbf8523a04ae5a059	-0.010321857724832894
21	0xbfc0dfc00b5e3be9	-0.1318283133991536
22	0xbf7c15d5aa78a6db	-0.006856760628161952
23	0xbf9e4c66feacfd64	-0.029588326734708473
24	0xbfbecc58f87e33ee	-0.12030559603427068
25	0xbfc7ab6efe68b107	-0.18491923734962532
26	0xbfa265c6f88e50c7	-0.03593274864320644
27	0x3fb884d791ac9a85	0.09577700907230209
28	0x3fc99cb939c0779b	0.20009532279885608
29	0x3fd37d1e6023662a	0.3045116366243713
30	0x3fce618900f968d7	0.23735153720446675
31	0xbf9fc396e589c38f	-0.031019552001854186
32	0xbfbe7b5b7e6c910b	-0.11906978451276388
33	0x3fb934a17ff3a401	0.09845933317014045
34	0x3fb9ae7d7321c1bc	0.10031875668369755
35	0xbfd3fd4176127a46	-0.31233250170217663
36	0x3fb33fdfce58b3ae	0.07519339359050889
37	0xbfcadf778c4c8dd1	-0.20994467115916263
38	0x3fc27ad5985bb4b0	0.14437360705725188
39	0xbfc039644cf94a68	-0.12675145872579496
40	0x3f66ce272fb8c266	0.0027838483199718487
41	0x3face37aa03697d9	0.056423027093202634
42	0xbfb57aa94de2d9b6	-0.08390291358487087
43	0xbfb7ab50c3ab1421	-0.09245781685884015
44	0xbfc14c0f70e33cf7	-0.13513367664425122
45	0xbfc41bfc17e9ab23	-0.15710402648559194
46	0xbf7789c591a39e3e	-0.0057466237578647755
47	0xbfac4a123d71975a	-0.055252618790105415
48	0xbf9bc49666fe0dad	-0.02711710933318805

model.weighter.14.weight f8 [7, 7]
0	0xbfd0ff801f621236	-0.26559451164965553
1	0x3fc94575d9bfb982	0.19743226177474688
2	0xbfd4604f68079b36	-0.3183783069529683
3	0x3fba9f5ab6d1675c	0.10399405444459603
4	0x3fd3af2ef0ffc321	0.3075673440462641
5	0x3f80985da44998b8	0.008103114677578169
6	0xbfacae5bfd124497	-0.056017756121158495
7	0xbf9d77cc99262241	-0.028777310225935663
8	0xbfbbdb4ccbc64a22	-0.10881500220265442
9	0xbfc2c0946d58abfd	-0.14650206889322695
10	0xbfa9fdbfa21790b6	-0.05076407292998068
11	0x3fc287a8e29bdc52	0.1447650057304793
12	0x3f82ca9661b682ef	0.009175467354738369
13	0xbfb31950ea383c50	-0.07460504263166112
14	0xbf65e542d67d77f2	-0.0026727967669293246
15	0x3fb8d355cbb0bf52	0.09697471831236484
16	0x3fcceda548e1e53a	0.22600236948691493
17	0xbfc35c5c1c4670a5	-0.15125609760878436
18	0xbfbadd7bc16fa0d0	-0.10494206879195933
19	0x3fb5f29e1d24fe4e	0.08573330127273346
20	0x3f8239a94165d58c	0.008899042423517377
21	0xbf88768702e1307e	-0.011944823050861194
22	0x3fbf8c7e5f4299fc	0.12323751283347656
23	0x3fd48a32d004202d	0.32093496622155976
24	0xbfa7be7a5340f69d	-0.046375105536282414
25	0xbfd26b1e3fe00d10	-0.28778797376453813
26	0x3fca0ba6d6a13bf6	0.20348058204623926
27	0xbfb500da244efd66	-0.08204425226630505
28	0xbfb478e1a2c76eb5	-0.07996950363252149
29	0x3f736454da6a8cd7	0.004734355409399891
30	0xbfa3ed13ba5cb244	-0.038918129443434896
31	0x3fb668d1271408cc	0.0875368805318743
32	0xbf960f0b51154c15	-0.021541764091420463
33	0xbf8cd1f85e656713	-0.014072361355534057
34	0x3fb85ea0aba5b1b0	0.09519390287977703
35	0xbfc5cf2a66ba5f90	-0.17038469329849848
36	0x3fd5545bc8a48067	0.3332738360786664
37	0xbfd373d82c92d067	-0.3039455828941357
38	0xbf92d3e3840fc458	-0.018386416373634112
39	0x3fb463b790e8627b	0.07964656150614673
40	0xbfc7f9af986235e0	-0.18730730953795582
41	0x3fb91793e5fc1627	0.09801601757870824
42	0xbfbfd6d18604e908	-0.12437161943390518
43	0xbf9a99dc468f715b	-0.02597755604425465
44	0xbf88816975438712	-0.011965583697420654
45	0x3f73debc9008806b	0.004851090023777353
46	0xbfc17951bd9232b7	-0.13651487118149472
47	0xbf66459715c4b523	-0.0027187300567194247
48	0x3f76ffe15c8094f9	0.005615120237085985

model.weighter.16.weight f8 [7, 7]
0	0x3fd7745dd96c456e	0.3664774535437435
1	0xbfb713b0ac947f76	-0.09014419759159673
2	0x3fcdac9a4a27290b	0.2318299161982583
3	0xbfc7f419b7aa17ff	-0.18713685482015305
4	0xbfa7fc625d75e606	-0.04684741392970797
5	0x3fd2107663be0d68	0.28225478878467536
6	0x3fb5c822dd12a5ec	0.08508508584295499
7	0xbf9b190da482a785	-0.0264627582224999
8	0xbfb7e0d5c60609ce	-0.0932744606452964
9	0xbfc14fb3c301af59	-0.13524481794172052
10	0xbfb955e7ae6d6ba3	-0.09896705635530494
11	0xbf7761237dad248c	-0.0057078729976832825
12	0xbfbc2089c4951e00	-0.10987149285676168
13	0x3fbbe37bfccb5f4a	0.10893988534678303
14	0xbfb2bf9268cc3735	-0.0732356553891947
15	0x3fc7e534938d820a	0.18668229298329236
16	0x3fcbc8c97b828718	0.21706503420596657
17	0x3fcd4ef41967240d	0.22897196998954464
18	0x3fb84175811d57c4	0.0947488250943414
19	0xbf63a11fd53c9ab8	-0.002396166013471781
20	0xbfa5b245fdfb3d6a	-0.04237574315413435
21	0xbfb2a25aa68c274d	-0.07278982702351051
22	0xbf93f50e6317eba0	-0.01948950271433214
23	0x3fcdca4eb979e953	0.2327364354749287
24	0x3fcc89a45fdacda4	0.22295050316243448
25	0xbf94e6bea087715d	-0.02041147093574246
26	0x3f92fde3e57ac802	0.01854663932926571
27	0x3fc270993443b142	0.14406123210882
28	0xbfc27ded614b6f55	-0.14446799517360867
29	0xbfae34c91e372307	-0.05899647229995791
30	0x3fc06133750ae7c7	0.12796633925409948
31	0x3fd5346b6a94a071	0.33132443817385765
32	0x3fc4fe11a1e710d0	0.16400356679344563
33	0x3fb7cc2ada215cf6	0.09295909715125447
34	0xbf9c0b60304d6f29	-0.02738714499297071
35	0x3fd2fc034a89689d	0.29663164404849757
36	0x3fa91f511b8ddf9b	0.04906705342631242
37	0xbf7f370120b45589	-0.0076208156636047375
38	0xbf969b6054774554	-0.022077088504209044
39	0x3fb94a8cd907ad1c	0.0987937955721247
40	0x3fc516ae5bbda975	0.16475467185530204
41	0xbf94445e4d3851bc	-0.019792054618010133
42	0xbfb39e9c775f5186	-0.07663896478999818
43	0x3fa18e326e9e03d2	0.03428800201709915
44	0xbfbefdcdfe95de60	-0.12106025186027969
45	0xbfc9239dc893e8ea	-0.19639942449413833
46	0x3fc46d98d94c15e1	0.15959463701453472
47	0x3fa504afd4d71573	0.041051382762399856
48	0xbfc00f1e64f8c1ea	-0.12546138696917747

model.weighter.18.weight f8 [1, 7]
0	0xbfd4eeec964cf5d2	-0.32708277395053387
1	0x3fab5ff4430befdc	0.05346644705238621
2	0x3fce337960896575	0.23594586576181667
3	0x3fd3e113bccf41d4	0.31061261595189404
4	0x3fd48f777541f372	0.3212565083593325
5	0xbfc94da06f991702	-0.19768147896882488
6	0x3f91d7ce70680f6d	0.017424798594233893

kth_value f8 []
0	0x7ff0000000000000	inf

step f8 []
0	0x40f3ed4000000000	81620.0

exp_avg f8 [7, 2]
0	0x3f69c1f9bc40a68f	0.0031442525523928742
1	0xbfb8b03d053db082	-0.09643918397859078
2	0xbf45ae443b7dbcb4	-0.0006616433301881637
3	0x3f5a904c05303bee	0.0016213171372816376
4	0xbf1a19b39d263c5c	-9.956511283902694e-05
5	0xbf3648b8d29bc5dc	-0.0003400279261845643
6	0xbf3bc09e9209905f	-0.00042346831654627674
7	0x3ef8e314f8d269e9	2.373412967369453e-05
8	0x3f030611726253ec	3.628483527610263e-05
9	0xbf2c4bf26aba8a23	-0.00021588644209653935
10	0x8000000000000005	-2.5e-323
11	0x0000000000000005	2.5e-323
12	0xbf61152da48efddb	-0.002085293909175096
13	0xbf4dc8be8efe0196	-0.0009089403592810626

exp_avg_sq f8 [7, 2]
0	0x3f35b17250960347	0.00033101120842364936
1	0x3fe03e77383657e6	0.5076252077003545
2	0x3ef0f4506138811b	1.6168929574901085e-05
3	0x3f3548bcb018f0f0	0.00032477003705701137
4	0x3ed3baceacca9a99	4.703930880956214e-06
5	0x3f6960ad81a672ea	0.003097857360627611
6	0x3f592ae990c4b0b0	0.001536110011396235
7	0x3f68c9436849d5ba	0.0030256573248219317
8	0x3f0fbee267a52526	6.0550007179369696e-05
9	0x3ef3f2baf9ed8b50	1.902405312693571e-05
10	0x3795b6b7667c5a29	6.231536612423059e-41
11	0x370b7a927038afdb	1.5402398399411082e-43
12	0x3f364700bce54a6e	0.000339925460953661
13	0x3fb0d0b993fd2f54	0.06568488944065837

step f8 []
0	0x40f3ed4000000000	81620.0

exp_avg f8 [7, 7]
0	0x0000000000000005	2.5e-323
1	0x0000000000000005	2.5e-323
2	0x0000000000000005	2.5e-323
3	0x0000000000000000	0.0
4	0x0000000000000005	2.5e-323
5	0x0000000000000000	0.0
6	0x0000000000000000	0.0
7	0x21caf2a28d527e79	6.743965064006968e-146
8	0x2171e9cbb23aedf1	1.4009314003849615e-147
9	0x0000000000000005	2.5e-323
10	0x8000000000000005	-2.5e-323
11	0x0000000000000018	1.2e-322
12	0x0000000000000000	0.0
13	0x21d0d6f3f1a1a7db	8.4285995475974e-146
14	0x3f3b3e65c6e3f7a3	0.00041570648944843687
15	0x21465350826a17bd	2.1824902580292416e-148
16	0x0000000000000005	2.5e-323
17	0x0000000000000005	2.5e-323
18	0xbeedbaf4b1e8e5d8	-1.4176509975804866e-05
19	0x0000000000000005	2.5e-323
20	0xbf196233bcfbbbf3	-9.68307569981645e-05
21	0x3f831f4833c1862c	0.009337009505716663
22	0x3ee7c6f5af079f95	1.1337845962480594e-05
23	0x3f16ddcd81a5c861	8.722845851652637e-05
24	0x3f2c02b0a062946c	0.00021370321355110593
25	0xbf15d861bef04225	-8.333298295349534e-05
26	0x8000000000000005	-2.5e-323
27	0x3f68a07a566430fc	0.0030062093166006703
28	0xbf740351c8f3a04e	-0.004885978195694985
29	0xbf3a69ffee921a84	-0.00040304659211935095
30	0xbf5c641c14724647	-0.0017328523843257602
31	0xbf46699bf949894b	-0.0006839763251032331
32	0x0000000000000005	2.5e-323
33	0x8000000000000005	-2.5e-323
34	0xbf7dcf0aeedcc63d	-0.007277529437304473
35	0xbf831ad82d6674c5	-0.009328545461182345
36	0x21c5b99fd787fbac	5.436930741187078e-146
37	0xbe4f508a62cb98a3	-1.4582002349919293e-08
38	0x0000000000000005	2.5e-323
39	0xbefe62bc065243f2	-2.8978044060826804e-05
40	0x0000000000000000	0.0
41	0xbfa15c38d1581155	-0.03390672259777953
42	0x0000000000000005	2.5e-323
43	0x0000000000000005	2.5e-323
44	0x0000000000000005	2.5e-323
45	0x0000000000000005	2.5e-323
46	0x0000000000000005	2.5e-323
47	0x8000000000000005	-2.5e-323
48	0x0000000000000005	2.5e-323

exp_avg_sq f8 [7, 7]
0	0x3bd97f5c8c96197a	2.1597227602460613e-20
1	0x3737e7ca06e2c3e6	1.0719563953132605e-42
2	0x3b52891862a7f8ae	6.132891874940738e-23
3	0x0000000000000000	0.0
4	0x3b8e246119e3422e	7.978549196390261e-22
5	0x0000000000000000	0.0
6	0x0000000000000000	0.0
7	0x3e243772d9277b0c	2.353521552327246e-09
8	0x3d71848cecf80a0a	9.957702420090326e-13
9	0x3bc9c8f26441ba5d	1.092035050488175e-20
10	0x3694181418ca92a9	8.79930335329576e-46
11	0x3d9bcb6800195ce5	6.319750279992093e-12
12	0x0000000000000000	0.0
13	0x3e296e79d692c880	2.960621682350311e-09
14	0x3ef1337d6f23d9d7	1.6404278491111354e-05
15	0x3e2a3f0c17417306	3.055468928256792e-09
16	0x3d5000da7bb02a91	2.2742105142589025e-13
17	0x3c20628d9193fdb9	4.441155740253415e-19
18	0x3e64e47b4197c371	3.8915324473179463e-08
19	0x36e649b8fc4cf8fd	3.1232110613152433e-44
20	0x3eb86ca66e113335	1.4558085512816902e-06
21	0x3f55f8974a33e31b	0.0013410069885237466
22	0x3f043e232e589678	3.860993255626067e-05
23	0x3f3068c2eca743a4	0.000250384892436501
24	0x3f20f9603941724d	0.00012950229268228683
25	0x3eb99458e3e7d61c	1.5246558998626753e-06
26	0x36d1a608e7e5e02a	1.236545939622232e-44
27	0x3f421db19c59c29c	0.0005528561820949576
28	0x3f45873e0f8ddd27	0.0006569912940070131
29	0x3ee12c92b90731cc	8.189255624645955e-06
30	0x3f24297651d20d38	0.00015382356005853317
31	0x3edcd5959d8cd9bf	6.874636221002071e-06
32	0x3c334c3d62b9cb7a	1.0461364668765653e-18
33	0x36f9179ec07cdb5f	7.032350793788579e-44
34	0x3f79bbdcb72cfc29	0.006282674951591218
35	0x3f71d69551263e64	0.004355033177844445
36	0x3ef32349a6ebaeae	1.825126895031611e-05
37	0x3f1b213ed8274a02	0.00010349222251385823
38	0x3ba1cc4055abb1f9	1.8844213736303953e-21
39	0x3e789036b52a6124	9.150555272742106e-08
40	0x0000000000000000	0.0
41	0x3fa3a5cf662f04b6	0.03837440607413482
42	0x3c8ef7c5f413e4ff	5.372068116670426e-17
43	0x3ccc11dc33d8c3f4	7.790925203282692e-16
44	0x3c9d745e3bacb181	1.0219104341573854e-16
45	0x3c68611cc03be919	1.0572855505218482e-17
46	0x387053aca71ba853	7.676849491729246e-37
47	0x36f228f26998b1e1	5.089501707040884e-44
48	0x3ca32c558e59c0e6	1.3304066516386408e-16

step f8 []
0	0x40f3ed4000000000	81620.0

exp_avg f8 [7, 7]
0	0x8000000000000005	-2.5e-323
1	0x20e8f111976cf541	3.809761446574594e-150
2	0x0000000000000005	2.5e-323
3	0x3f171a12c804cc1b	8.812656051730742e-05
4	0x3f8214a6568ee49a	0.008828448788209809
5	0x3f5c73f4036c0392	0.0017366297667537928
6	0x0000000000000005	2.5e-323
7	0x0000000000000000	0.0
8	0x8000000000000005	-2.5e-323
9	0x8000000000000005	-2.5e-323
10	0x3f25663ce150631c	0.00016326420942005474
11	0xbf23974a65ca5949	-0.00014946730779703325
12	0x8000000000000005	-2.5e-323
13	0x0000000000000005	2.5e-323
14	0x0000000000000000	0.0
15	0x0000000000000000	0.0
16	0x0000000000000000	0.0
17	0x0000000000000000	0.0
18	0x0000000000000000	0.0
19	0x0000000000000000	0.0
20	0x0000000000000000	0.0
21	0x0000000000000000	0.0
22	0x0000000000000000	0.0
23	0x0000000000000005	2.5e-323
24	0x8000000000000005	-2.5e-323
25	0x0000000000000005	2.5e-323
26	0x0000000000000005	2.5e-323
27	0x8000000000000005	-2.5e-323
28	0x0000000000000000	0.0
29	0x0000000000000000	0.0
30	0x0000000000000005	2.5e-323
31	0x0000000000000005	2.5e-323
32	0x8000000000000005	-2.5e-323
33	0x0000000000000000	0.0
34	0x8000000000000005	-2.5e-323
35	0x0000000000000005	2.5e-323
36	0xa15c43ea9a8b0fbc	-5.5263160491659584e-148
37	0x3f2dad1617e2ef1a	0.0002264108151787063
38	0x3f4b40fb9b9aee6f	0.0008317211679335755
39	0x3f569d3f4d082f2a	0.0013802641079818192
40	0x3f4d655a660d6e6f	0.0008970919990178415
41	0x8000000000000005	-2.5e-323
42	0x0000000000000005	2.5e-323
43	0xa18e6501ea5b1b0f	-4.754096540429641e-147
44	0x3f42eac477515ef0	0.0005773028666551088
45	0x3f63eb381f367602	0.002431497204908651
46	0xbf82f85205468f4e	-0.009262696062087319
47	0xbf6b0ccfbec209da	-0.0033020074388911804
48	0x8000000000000005	-2.5e-323

exp_avg_sq f8 [7, 7]
0	0x36d0b96584393ab9	1.1717801580134473e-44
1	0x3c703db4237e22a3	1.408684796203907e-17
2	0x3d0713dc89a77ea1	1.0248505994260513e-14
3	0x3ee4a6326b96b5a9	9.846309114570585e-06
4	0x3f78f6b8bd29f68f	0.00609466708794816
5	0x3f320f3a457fabe1	0.00027556584018267714
6	0x3c21eb19801d191b	4.856780628683791e-19
7	0x0000000000000000	0.0
8	0x3b00c04d6845f1df	1.7320315347456512e-24
9	0x3d3041c044809a02	5.775589791510866e-14
10	0x3ef29c6826febeee	1.774879859767116e-05
11	0x3eb6d6e560864a61	1.3613365600113967e-06
12	0x3d5e8bbb4227693d	4.3408229667303077e-13
13	0x3cbb78e4256fe47b	3.812537956911237e-16
14	0x0000000000000000	0.0
15	0x0000000000000000	0.0
16	0x0000000000000000	0.0
17	0x0000000000000000	0.0
18	0x0000000000000000	0.0
19	0x0000000000000000	0.0
20	0x0000000000000000	0.0
21	0x0000000000000000	0.0
22	0x0000000000000000	0.0
23	0x3c5cee8510da0fa4	6.2735662852556516e-18
24	0x363beaf98ea1fc2e	1.9102182116632308e-47
25	0x3b6272e153735644	1.2208359124935883e-22
26	0x3c12431efff25ab3	2.474988498825549e-19
27	0x3a1c49e23afb94ba	8.92631084523769e-29
28	0x0000000000000000	0.0
29	0x0000000000000000	0.0
30	0x39eca91b80173379	1.1304603913310597e-29
31	0x3bb1b4245ae28363	3.74890000549163e-21
32	0x3b4ab170c1c5a3ec	4.4160073928435355e-23
33	0x0000000000000000	0.0
34	0x3b4605627c15df38	3.643074479857864e-23
35	0x3b3d93ed6f7004c5	2.4466217236251368e-23
36	0x3d8ea526f0122fc8	3.4839473975504836e-12
37	0x3eb6e5a33b0154a6	1.3647688597202925e-06
38	0x3edc8297ee25ce14	6.797344868625654e-06
39	0x3f646591762caab5	0.00248983774635766
40	0x3f154fa9277baecd	8.129568038455909e-05
41	0x3c50049d71723e38	3.473356019425883e-18
42	0x3b200b7661e3ebd0	6.635963456774196e-24
43	0x3db4d5d6d892af5f	1.8949603636079173e-11
44	0x3ed7ff1b577877e5	5.721214044322372e-06
45	0x3f00380be016f5a9	3.093515625661052e-05
46	0x3f58fa42a4fd082c	0.0015245104622896395
47	0x3f5fc728f43b015e	0.0019395732823995408
48	0x3c6a639c0976e10d	1.1444447683458333e-17

step f8 []
0	0x40f3ed4000000000	81620.0

exp_avg f8 [7, 7]
0	0x3f527e4070bfc0d6	0.0011287335682901765
1	0x3f320fde76823bd0	0.00027560406898257967
2	0x0000000000000000	0.0
3	0x8000000000000005	-2.5e-323
4	0x0000000000000005	2.5e-323
5	0x3f5c455080f12594	0.0017255102318521663
6	0xbf4ea907a9977705	-0.0009356772817985254
7	0xbf37042643c58724	-0.0003511994762189655
8	0x0000000000000005	2.5e-323
9	0x0000000000000000	0.0
10	0x0000000000000005	2.5e-323
11	0x0000000000000000	0.0
12	0xbf3da5fc39332ec0	-0.0004523983745456754
13	0xbf6b43ece269772e	-0.0033282877587187598
14	0x0000000000000000	0.0
15	0x0000000000000000	0.0
16	0x0000000000000000	0.0
17	0x0000000000000000	0.0
18	0x0000000000000000	0.0
19	0x0000000000000000	0.0
20	0x0000000000000000	0.0
21	0x3f4e858746e751ff	0.0009314451725069283
22	0x3f08e1a4f94470a0	4.74575491884188e-05
23	0x0000000000000000	0.0
24	0x0000000000000005	2.5e-323
25	0x0000000000000005	2.5e-323
26	0x3f41c32f49ed29a5	0.0005420666601392744
27	0x3f683cd60ff84b73	0.0029586964517504476
28	0x8000000000000005	-2.5e-323
29	0x0000000000000005	2.5e-323
30	0x0000000000000000	0.0
31	0x0000000000000005	2.5e-323
32	0x0000000000000000	0.0
33	0x0000000000000005	2.5e-323
34	0x8000000000000005	-2.5e-323
35	0xbf3c3528db30ff7e	-0.00043041465250225747
36	0xbef3ca72d2e26aff	-1.8873991557736936e-05
37	0x0000000000000000	0.0
38	0x8000000000000005	-2.5e-323
39	0x0000000000000005	2.5e-323
40	0x3f120e48e2d291b4	6.887740956302326e-05
41	0xbf623136dc875b3d	-0.002220732833147747
42	0x3f4d9eec7536f3ff	0.0009039549426500536
43	0x3f23c6e86833eb4e	0.00015088641166712897
44	0x0000000000000000	0.0
45	0x8000000000000005	-2.5e-323
46	0x0000000000000005	2.5e-323
47	0x3f4bd6a6cb296728	0.0008495630666615949
48	0x3f524446bf79500a	0.001114911165037038

exp_avg_sq f8 [7, 7]
0	0x3f31825db5251658	0.0002671698358834621
1	0x3efc00d51e041858	2.67059821235305e-05
2	0x0000000000000000	0.0
3	0x3ba656aafe7d0d2c	2.3651856271499836e-21
4	0x3b3a6c3cae13cac3	2.1856428636442692e-23
5	0x3ef30854434a4943	1.8150840519989537e-05
6	0x3f0832c12db85b74	4.61545184544031e-05
7	0x3ee2778c8af35db5	8.80574620369568e-06
8	0x3c274258f580dd31	6.304410635730595e-19
9	0x0000000000000000	0.0
10	0x3b9e453593741828	1.6024989200085868e-21
11	0x0000000000000000	0.0
12	0x3ed03be3f3f7716c	3.870474585690068e-06
13	0x3f229001528125d2	0.0001416207899203452
14	0x0000000000000000	0.0
15	0x0000000000000000	0.0
16	0x0000000000000000	0.0
17	0x0000000000000000	0.0
18	0x0000000000000000	0.0
19	0x0000000000000000	0.0
20	0x0000000000000000	0.0
21	0x3f362ebf6c2603f9	0.0003384797420480919
22	0x3eb857143a54a116	1.4507861377331571e-06
23	0x0000000000000000	0.0
24	0x39f0d505b1e2f3ec	1.3278199958078774e-29
25	0x3b0bcc988a988a1e	2.8743701790730986e-24
26	0x3eff4c4857dbdb66	2.9848078603368805e-05
27	0x3f441e7d5d93f73f	0.0006139862190648117
28	0x3b579dbbcaa6a06a	7.813927484820157e-23
29	0x3a942a8b25d9baf7	1.62901151007177e-26
30	0x0000000000000000	0.0
31	0x3ad029d4885cc757	2.089070388313182e-25
32	0x0000000000000000	0.0
33	0x3bc61a661ae47320	9.361035650059843e-21
34	0x3bb0f441a9b63bd7	3.5901760268722514e-21
35	0x3f028b27d68ae65f	3.536906553365244e-05
36	0x3e99fc8d6dcce50a	3.8722951760694167e-07
37	0x0000000000000000	0.0
38	0x3bb9baf59a403428	5.448605098888607e-21
39	0x3b00316a51cd090e	1.6743199101452355e-24
40	0x3ef9dfa45cbe2480	2.4674989432625378e-05
41	0x3f3a73749057f81e	0.00040361018940860023
42	0x3f69c4b8faac7ed6	0.00314556244610729
43	0x3ee25c9f22cb42d7	8.755590067550788e-06
44	0x0000000000000000	0.0
45	0x3b9474a4622df594	1.0829122097768592e-21
46	0x3b4edce4e6c72a55	5.10583317166384e-23
47	0x3ef1200b929a09d9	1.6331841072867108e-05
48	0x3f1fd56c90698189	0.00012143588183156062

step f8 []
0	0x40f3ed4000000000	81620.0

exp_avg f8 [7, 7]
0	0xbf498df54d95688b	-0.000779862191090845
1	0xbf2a7ea889f3513e	-0.00020213897094002205
2	0x0000000000000000	0.0
3	0xbf15dc6bfee84646	-8.339318421970399e-05
4	0x8000000000000005	-2.5e-323
5	0xbf25eb762512180d	-0.00016723458478312727
6	0xbf2895160c1b299f	-0.00018754858142806544
7	0x22549fc3af93ab2d	2.642631761866174e-143
8	0x0000000000000005	2.5e-323
9	0x0000000000000000	0.0
10	0x2270e62cd1c79717	8.661361986428866e-143
11	0x0000000000000005	2.5e-323
12	0x8000000000000005	-2.5e-323
13	0x226279edbd2cf192	4.734855113652176e-143
14	0x3f42c12c47d3e8cb	0.0005723444188838964
15	0xbf4aff3eee23db31	-0.0008238847042595141
16	0x0000000000000000	0.0
17	0x3f486c72cace11a4	0.0007453499325583046
18	0x8000000000000005	-2.5e-323
19	0xbf308bbbeb3da8de	-0.0002524694239044565
20	0x3f4ae5938702f9dd	0.0008208246563510786
21	0x0000000000000000	0.0
22	0x0000000000000000	0.0
23	0x0000000000000000	0.0
24	0x0000000000000000	0.0
25	0x0000000000000005	2.5e-323
26	0x0000000000000000	0.0
27	0x0000000000000005	2.5e-323
28	0xbf60a878bf8b2bb7	-0.002033458553659408
29	0xbf499132120e471a	-0.0007802481160174874
30	0x0000000000000000	0.0
31	0xbf27869e1f471a19	-0.00017948799326302013
32	0x8000000000000005	-2.5e-323
33	0xbf3cb800deeb366a	-0.00043821355113213853
34	0xbf3c04d7b0710408	-0.00042753473139006725
35	0xaafbc61499f8791a	-1.2400409444041546e-101
36	0x0000000000000005	2.5e-323
37	0x0000000000000000	0.0
38	0xab05f951e968b1f5	-1.96217950290231e-101
39	0x0000000000000005	2.5e-323
40	0x215134e1094b76d5	3.3641562951970775e-148
41	0xaaf864f366cca0e1	-1.0891571058825219e-101
42	0xbf4887f708c45332	-0.0007486301633742086
43	0xbf212b395f87777f	-0.0001309878860089007
44	0x0000000000000000	0.0
45	0xbf1a3e98b75f2a37	-0.00010011489015863342
46	0x0000000000000005	2.5e-323
47	0xbf23df58c2120e16	-0.00015161474678758506
48	0xbf2a1a145bf81bc7	-0.0001991414883237548

exp_avg_sq f8 [7, 7]
0	0x3f14b4496c7c359e	7.898042815331636e-05
1	0x3e9eb8ef93cb3123	4.5779951899913e-07
2	0x0000000000000000	0.0
3	0x3ecd8aa5907000d7	3.5216318141629644e-06
4	0x3ba3e15cc82f8b72	2.104910966007013e-21
5	0x3ed94e52e298d4f7	6.033409172758291e-06
6	0x3ee0f9981be7cf13	8.094299912087975e-06
7	0x3e38b2076675fe9f	5.749851795535061e-09
8	0x3b0435a0e8a4774f	2.089611930166084e-24
9	0x0000000000000000	0.0
10	0x3f518d9c4ec96dc4	0.0010713602488497823
11	0x3a3b60bc0d77cb8e	3.455572941019169e-28
12	0x3b0e90c55752a1c0	3.1603997832588312e-24
13	0x3f17d380714c5ad6	9.088965846291581e-05
14	0x3efc3b90874c7990	2.6924776153619513e-05
15	0x3ee176cc702bfa1c	8.327511300529554e-06
16	0x0000000000000000	0.0
17	0x3f73d252df66e7c4	0.004839252206176373
18	0x3b880f131a60c400	6.3683338974527945e-22
19	0x3f08425e373efd00	4.6270847547708396e-05
20	0x3f3ddfa68c632cdd	0.00045583549616585816
21	0x0000000000000000	0.0
22	0x0000000000000000	0.0
23	0x0000000000000000	0.0
24	0x0000000000000000	0.0
25	0x3a9a1bdb7dc10502	2.1090535156612162e-26
26	0x0000000000000000	0.0
27	0x3a1cf0fdb1252c5b	9.132286460354098e-29
28	0x3f3083c85e4bddcd	0.00025199548535634054
29	0x3edce5fe1ffb468e	6.88991758553279e-06
30	0x0000000000000000	0.0
31	0x3ecb2abec2699383	3.2385555813079286e-06
32	0x3b33502fcdf94610	1.5975528958619786e-23
33	0x3f09458cfedc0c94	4.8201909391942414e-05
34	0x3ef2628034baae30	1.753308178702016e-05
35	0x3e61310fffa858b0	3.202194416935847e-08
36	0x3c97bee35c1c0014	8.238429638229792e-17
37	0x0000000000000000	0.0
38	0x3f41f3651f7fe4f3	0.0005478137745732733
39	0x3b01883ba17fb0fd	1.8127828451275144e-24
40	0x3d91e1348e12f71e	4.065374963671846e-12
41	0x3f085e56ea092f12	4.64792512998286e-05
42	0x3f16baf7e5263424	8.670938522055465e-05
43	0x3e8bfc92c02f69b5	2.085165250177242e-07
44	0x0000000000000000	0.0
45	0x3ed1fdc1c574c43a	4.2894453920342696e-06
46	0x3b6c3f9f3d593536	1.869330481376891e-22
47	0x3ed61cb6a384c855	5.27195020820673e-06
48	0x3ee46182a5048070	9.718370308109593e-06

step f8 []
0	0x40f3ed4000000000	81620.0

exp_avg f8 [7, 7]
0	0x3f08975c0ac30b90	4.690408363352335e-05
1	0xa22a1986f82785f1	-4.1803039703897046e-144
2	0x3f59212b156887d5	0.001533786844114084
3	0x0000000000000000	0.0
4	0x3f131689f384160a	7.281510341180394e-05
5	0x2af415ba4a23b1fd	8.967483403618069e-102
6	0x3f10425fcc802459	6.202420911462346e-05
7	0x3f07a209c6378943	4.507629708052016e-05
8	0xa2567bf68e58880d	-2.8809791095193557e-143
9	0x3f60a2d55cccbbe2	0.002030770038252681
10	0x0000000000000000	0.0
11	0x3f12194eabe634b0	6.904165909400978e-05
12	0x2afd542da824ce00	1.3094716159101088e-101
13	0x3f0f590599adc990	5.9791072280729264e-05
14	0x3f090df7e3c874d5	4.7787787910128e-05
15	0xa228944feb961f18	-3.9367912069491223e-144
16	0x3f57e46d587f1810	0.0014582698658940386
17	0x0000000000000000	0.0
18	0x3f136daaa3711d81	7.41134070817353e-05
19	0x2af2cd5ce4da1f9e	8.394795328755354e-102
20	0x3f1088fed3d4c1a2	6.307654708304644e-05
21	0xbf511ac7a9ad41c3	-0.0010439824897795359
22	0xa2298d3fa85f68ae	-4.092538552939979e-144
23	0xbf5fbeb3a1f74cb7	-0.0019375566697490806
24	0x0000000000000005	2.5e-323
25	0xbf54a98fd5e4bc64	-0.0012611298221363526
26	0x2aed4b776fad748e	6.539761127849568e-102
27	0xbf53080ea7917752	-0.0011615889655085154
28	0x0000000000000005	2.5e-323
29	0x0000000000000005	2.5e-323
30	0x0000000000000005	2.5e-323
31	0x0000000000000005	2.5e-323
32	0x0000000000000005	2.5e-323
33	0x0000000000000005	2.5e-323
34	0x0000000000000005	2.5e-323
35	0x0000000000000000	0.0
36	0x2229a2c90b2350c2	4.106012987157508e-144
37	0x222552ae9ee3e2ba	3.4152297432365493e-144
38	0x8000000000000005	-2.5e-323
39	0x0000000000000000	0.0
40	0x2224441420100b99	3.2459264031394114e-144
41	0x0000000000000000	0.0
42	0x0000000000000005	2.5e-323
43	0x0000000000000005	2.5e-323
44	0x0000000000000005	2.5e-323
45	0x8000000000000005	-2.5e-323
46	0x0000000000000005	2.5e-323
47	0x0000000000000005	2.5e-323
48	0x0000000000000005	2.5e-323

exp_avg_sq f8 [7, 7]
0	0x3ea4433c1093a473	6.038735886035483e-07
1	0x3e35f64ec87c2705	5.113459107322227e-09
2	0x3f27ba1dd9eceefa	0.0001810227813282479
3	0x0000000000000000	0.0
4	0x3eb3026a96a85af5	1.1330508537015685e-06
5	0x3e43ca57ddcf43cf	9.215624646997334e-09
6	0x3eaff357bb622722	9.522008131018282e-07
7	0x3e957513acd3d4a2	3.197391549991331e-07
8	0x3f63bee55fde08b7	0.002410362240824328
9	0x3f5b4f828b3b8840	0.0016669058649587815
10	0x0000000000000000	0.0
11	0x3ea3c8dbd13c112d	5.896271510768207e-07
12	0x3f59992d1699afce	0.0015623989405879504
13	0x3ea0cfd84f57351d	5.010334961864057e-07
14	0x3ea5a39c709208d4	6.44895608151414e-07
15	0x3e29bd09cbfc8b9b	2.996347697643184e-09
16	0x3f25a730dbb99eb7	0.00016519996084983997
17	0x0000000000000000	0.0
18	0x3eb45f405a67345b	1.214270335492325e-06
19	0x3e3f2bb87c99db74	7.2575136539493995e-09
20	0x3eb110066473cf43	1.0170100653268623e-06
21	0x3f16d19c09628ce6	8.704676506226006e-05
22	0x3e3108b166466477	3.966027149401453e-09
23	0x3f323bc6f9edd140	0.0002782212049432693
24	0x3a9e34d091c30d6c	2.4400460892798754e-26
25	0x3f2409ae26b192bd	0.00015287638538831984
26	0x3e37e4362f35b749	5.562662097749859e-09
27	0x3f1fc3c7c889071b	0.00012117297058813726
28	0x3b1b5e41b8a6dcd4	5.659609109870493e-24
29	0x3b2f2f404ca5e8c6	1.2897637876169487e-23
30	0x3b21c69e2019ac9a	7.351919370728919e-24
31	0x3a7229d960276732	3.668084188659867e-27
32	0x369d4ed302f92c8b	1.283410170826372e-45
33	0x3b4005e44d776b4c	2.650785451232402e-23
34	0x3a4d2f86fb1cf6ae	7.367494706188397e-28
35	0x0000000000000000	0.0
36	0x3f12ac9dfd4929dc	7.123674669987735e-05
37	0x3f04fb5922fb6f3e	4.001966260400038e-05
38	0x3a567ff001039664	1.1359473806180489e-27
39	0x0000000000000000	0.0
40	0x3f0835868c4a678f	4.617516382161769e-05
41	0x0000000000000000	0.0
42	0x3bc59c3688e0129f	9.152278719325556e-21
43	0x38768d0e2c974b43	1.0603428081181365e-36
44	0x3c519c89cbb43239	3.818880454009153e-18
45	0x3a043550a2065467	3.1883015094084885e-29
46	0x3beec99e7184ba75	5.2156178926954005e-20
47	0x3b8844cc6217f12b	6.423882953555463e-22
48	0x3bc287a29bb46053	7.847686121677346e-21

step f8 []
0	0x40f3ed4000000000	81620.0

exp_avg f8 [7, 7]
0	0xa18097ec30d67816	-2.595426656359495e-147
1	0x220b65a9c7a090a1	1.0970262916149629e-144
2	0xa182aa20ca378745	-2.9193754476225597e-147
3	0x21901a7712b3e2be	5.03754745209561e-147
4	0x8000000000000005	-2.5e-323
5	0x2233e93dbf47904f	6.378187774049492e-144
6	0x8000000000000005	-2.5e-323
7	0x3f436ec9e5cd4800	0.0005930410221515192
8	0x3f50412824f36f95	0.000992097094971255
9	0x3f43154a8209c098	0.000582372074928744
10	0xbf207e8bf8e79606	-0.000125841700039306
11	0x0000000000000005	2.5e-323
12	0xa1d633ee7532a772	-1.111299132995448e-145
13	0x8000000000000005	-2.5e-323
14	0xbefdc17ef5debd3a	-2.8377383720798825e-05
15	0xbf1ca3d5915eec85	-0.00010925284399736404
16	0xbefcbb8fb6c3f06a	-2.740160145807449e-05
17	0xbf67700008d63afe	-0.002861023013515206
18	0x0000000000000005	2.5e-323
19	0x0000000000000005	2.5e-323
20	0x0000000000000005	2.5e-323
21	0x0000000000000000	0.0
22	0x0000000000000005	2.5e-323
23	0x0000000000000000	0.0
24	0x8000000000000005	-2.5e-323
25	0x8000000000000005	-2.5e-323
26	0x0000000000000000	0.0
27	0x0000000000000000	0.0
28	0x3f3c00ac48b65503	0.00042728620675210066
29	0x3f4808d904d658a1	0.000733476606614731
30	0x3f3b7a6f2f97c87a	0.00041928495883703616
31	0x3f4c6a5d6d744f30	0.0008671718777883749
32	0x8000000000000005	-2.5e-323
33	0xa24332125be699da	-1.2297974885884863e-143
34	0x8000000000000005	-2.5e-323
35	0xbee4982083ce820a	-9.820101803560184e-06
36	0xbf094ff3e2bad6cc	-4.8279409694469e-05
37	0xbee3e4fa9661d7ee	-9.486412363406802e-06
38	0xbf58e3a12e634246	-0.0015191148791481464
39	0x0000000000000005	2.5e-323
40	0x221d2fbf0d12c536	2.3373526476842035e-144
41	0x8000000000000005	-2.5e-323
42	0x0000000000000000	0.0
43	0x8000000000000005	-2.5e-323
44	0x0000000000000000	0.0
45	0x0000000000000000	0.0
46	0x0000000000000005	2.5e-323
47	0x0000000000000000	0.0
48	0x0000000000000000	0.0

exp_avg_sq f8 [7, 7]
0	0x3d87600e81e077e2	2.657454997951066e-12
1	0x3edb88d3b8fca4e4	6.564731748240022e-06
2	0x3d900f1c32e5edf1	3.6513993177005915e-12
3	0x3dee8637acf89ae4	2.2209341873007514e-10
4	0x399d5298d6fa2e56	3.614295000272305e-31
5	0x3f2bd087ee67aefd	0.00021220835988288575
6	0x3b0499dc162883e7	2.1300949746130967e-24
7	0x3f00f53a701128bc	3.234467113395883e-05
8	0x3f182fe9924b3420	9.226668459945452e-05
9	0x3f008cf058a474aa	3.156765440535368e-05
10	0x3ed5a98d60dbb4d1	5.164698007692831e-06
11	0x3746c84341011da1	2.0431851949889083e-42
12	0x3de7dc72ee6f9c7f	1.7361256114851214e-10
13	0x3bdb93f262a03c7f	2.3359404532075144e-20
14	0x3ea45e9809d7be03	6.070586270871969e-07
15	0x3ec6a6b3fe9b9db6	2.700231552011269e-06
16	0x3ea35f2bb24ce8fa	5.773234518010461e-07
17	0x3f447d7fe47214b4	0.0006253122782175131
18	0x3a551cc8c02b11b5	1.0659057356343969e-27
19	0x3a46db3a0cbd3ffd	5.769755045112769e-28
20	0x3befa28413b2891a	5.3591482912591707e-20
21	0x0000000000000000	0.0
22	0x37d343c1bb222410	8.845904866001443e-40
23	0x0000000000000000	0.0
24	0x36e47a2ebc3d5548	2.869477488581799e-44
25	0x3673faafffd3b6bd	2.187256999375117e-46
26	0x0000000000000000	0.0
27	0x0000000000000000	0.0
28	0x3ef1ae8b117d1db9	1.6862687601174843e-05
29	0x3f132263aabe1337	7.299168890824164e-05
30	0x3ef13db619cb6e08	1.6442356001939953e-05
31	0x3f0fb0f3e6339de2	6.044620820394219e-05
32	0x3a03831e7c2eb088	3.0784798132869724e-29
33	0x3f4975b00f805393	0.000776968924585663
34	0x3bdc39c9470360af	2.390812115214388e-20
35	0x3e75a0c3f1fbc603	8.057054090204522e-08
36	0x3eb48be79ce3a487	1.2246670056343207e-06
37	0x3e748d9936d0422a	7.656633523056779e-08
38	0x3f2825bb026a9225	0.00018422992544232897
39	0x3a3f65788acf0502	3.96277909041199e-28
40	0x3efd4c010ed8f0f4	2.7939692634358076e-05
41	0x3b7ad1bb8a941692	3.54950055241925e-22
42	0x0000000000000000	0.0
43	0x366c4316fd11212f	1.5470154151280724e-46
44	0x0000000000000000	0.0
45	0x0000000000000000	0.0
46	0x3705481faaf0b4f0	1.1928824026862957e-43
47	0x0000000000000000	0.0
48	0x0000000000000000	0.0

step f8 []
0	0x40f3ed4000000000	81620.0

exp_avg f8 [7, 7]
0	0x2182cf0e9ad44b12	2.941938574878413e-147
1	0x3f620d70bb640f72	0.002203674487761314
2	0x3f02c15676fc0ef3	3.577275390223384e-05
3	0x0000000000000005	2.5e-323
4	0x3f52ebf2f0d02610	0.0011548874347248085
5	0x3ef50e74b64ccdbf	2.0081013093432286e-05
6	0x0000000000000005	2.5e-323
7	0xa250bbc37b751f46	-2.14411267311255e-143
8	0x21e7469298aa3bb5	2.3299917105339704e-145
9	0x8000000000000005	-2.5e-323
10	0x0000000000000005	2.5e-323
11	0xa2430c6a4b60b918	-1.2203735577986205e-143
12	0xa231196f236bfa7c	-5.477491800279159e-144
13	0x0000000000000000	0.0
14	0xa15e421666f24b67	-5.915951101018229e-148
15	0xbf41ccab2bef52b2	-0.0005431972311905257
16	0xbf51987147999e9a	-0.0010739427802039293
17	0x0000000000000005	2.5e-323
18	0x3f3ef1d7df06733d	0.00047217865269448875
19	0xbf419f2ee64a0c25	-0.0005377749444764919
20	0x0000000000000005	2.5e-323
21	0xa164957cdba4566f	-8.04897483630417e-148
22	0xbf63bcb5cc0149f8	-0.0024093199463461855
23	0xbf5ca611c979eaee	-0.0017485784245809227
24	0x0000000000000005	2.5e-323
25	0xbf02ab872f66eff0	-3.561025907880533e-05
26	0xbf4d0217f20e2a54	-0.0008852593347097961
27	0x8000000000000005	-2.5e-323
28	0x0000000000000005	2.5e-323
29	0x0000000000000005	2.5e-323
30	0x0000000000000005	2.5e-323
31	0x0000000000000005	2.5e-323
32	0x0000000000000005	2.5e-323
33	0x0000000000000005	2.5e-323
34	0x0000000000000000	0.0
35	0x216856e46eb1238b	9.51748975358273e-148
36	0x3f56b5c5eda4951a	0.0013861115354044163
37	0xbf1738114267454f	-8.857350676485142e-05
38	0x0000000000000005	2.5e-323
39	0x3f4a47707d8b99a6	0.0008019732732378784
40	0xbf04b90b96ed7591	-3.952566736729468e-05
41	0x0000000000000005	2.5e-323
42	0x0000000000000000	0.0
43	0x0000000000000000	0.0
44	0x0000000000000000	0.0
45	0x0000000000000000	0.0
46	0x0000000000000000	0.0
47	0x0000000000000000	0.0
48	0x0000000000000000	0.0

exp_avg_sq f8 [7, 7]
0	0x3db2ac8f1cd40f28	1.6983957471111237e-11
1	0x3f3c37d786f6f3e7	0.0004305745305506745
2	0x3ea02801d54f6777	4.814946047385371e-07
3	0x378841a5230286ab	3.480626437691491e-41
4	0x3f20a0a5559dd948	0.00012685793154405323
5	0x3e8545e13aece6bf	1.584959625435349e-07
6	0x3568b28efc9d8e50	2.0628309751992958e-51
7	0x3f639127c8a57080	0.002388551428493868
8	0x3e10959769ab728c	9.65335733813371e-10
9	0x3bc5b1db9eb06a1c	9.188087143219764e-21
10	0x3733fe7ce7423e5f	8.965661548950228e-43
11	0x3f4a072766d66409	0.0007943098441273176
12	0x3f24c7acf0a7b7de	0.00015853868565279724
13	0x0000000000000000	0.0
14	0x3d549810152569a9	2.9265827664962347e-13
15	0x3f031f2d1b2a4648	3.6471904782630976e-05
16	0x3f1f1836fd426178	0.0001186164439012145
17	0x3745cd0e940fbea2	1.955181632193761e-42
18	0x3ef1f1746f697fac	1.7111952696046977e-05
19	0x3f0044b4c0850b22	3.102947818202905e-05
20	0x3674d2899345496e	2.2795635612307676e-46
21	0x3d63acd9f3919f43	5.592028365714593e-13
22	0x3f381019f362d2ae	0.00036717065394079984
23	0x3f2e58ec8b679293	0.00023153197771743193
24	0x375562a8d9d2ac19	3.835816026673483e-42
25	0x3eaa9422ce42d7d6	7.921056775137208e-07
26	0x3f0fc92d6e5b0669	6.062669653551513e-05
27	0x368c29d9b95fd774	6.166474861093654e-46
28	0x3621e09ff02fdf98	6.116120573210961e-48
29	0x3735b9cc262f5ad3	9.742172795374743e-43
30	0x3695a154016cfe80	9.471984165662661e-46
31	0x36f21388f235b460	5.066060635311091e-44
32	0x371e7438e20bf50b	3.414010686022704e-43
33	0x36ded84dced3ad53	2.1611481603532837e-44
34	0x0000000000000000	0.0
35	0x3d7a36a14839941e	1.4900591889943112e-12
36	0x3f245ce1300f7765	0.0001553559195874257
37	0x3ec6ceac7b8f3b48	2.7188443394230313e-06
38	0x3767e9dd5968620c	8.578559526549059e-42
39	0x3f0f9be88bca928a	6.0289415590807324e-05
40	0x3ea7c08f799d51a0	7.078704016097368e-07
41	0x3681c19159170ea3	3.887754595641419e-46
42	0x0000000000000000	0.0
43	0x0000000000000000	0.0
44	0x0000000000000000	0.0
45	0x0000000000000000	0.0
46	0x0000000000000000	0.0
47	0x0000000000000000	0.0
48	0x0000000000000000	0.0

step f8 []
0	0x40f3ed4000000000	81620.0

exp_avg f8 [7, 7]
0	0x3f5739bf02b9e4f7	0.0014175763452882165
1	0xa1b397914050ac34	-2.451558271364161e-146
2	0x3f35b79a1b3da778	0.00033137810100091576
3	0x3f31e80227ad096b	0.00027322819339672147
4	0x0000000000000005	2.5e-323
5	0x3f5895df39764c0b	0.0015005760122661662
6	0x0000000000000000	0.0
7	0x0000000000000000	0.0
8	0x0000000000000000	0.0
9	0x0000000000000000	0.0
10	0x0000000000000000	0.0
11	0x0000000000000000	0.0
12	0x0000000000000000	0.0
13	0x0000000000000000	0.0
14	0xbef7bc134a5395bf	-2.263514456481651e-05
15	0xa1dc3dc84cb13743	-1.4135376138082193e-145
16	0xbf45e82081154b43	-0.0006685408317629111
17	0xbf503c4b46080d02	-0.0009909377187121153
18	0x0000000000000000	0.0
19	0xbf19337e572c754b	-9.613474484778288e-05
20	0x0000000000000000	0.0
21	0xbefda66ad58889c3	-2.8276508006305907e-05
22	0x0000000000000005	2.5e-323
23	0xbf4d01553d519483	-0.0008851686676619872
24	0xbf55808af77f0892	-0.0013123852822763166
25	0x0000000000000000	0.0
26	0xbf206e59afa59dc9	-0.00012535900880126922
27	0x0000000000000000	0.0
28	0xbf0049236c97a376	-3.106250148816093e-05
29	0x0000000000000005	2.5e-323
30	0xbf4e06a7dd5d278e	-0.0009163207675808459
31	0xbf56407f29c81d4a	-0.001358150656530404
32	0x0000000000000005	2.5e-323
33	0xbf21436f12543b85	-0.00013170939306702767
34	0x0000000000000000	0.0
35	0x3f4c680b1c7f0f17	0.000866895127721953
36	0x21d310c7216a62ec	9.542698078221691e-146
37	0x3f1a48b748168fe1	0.00010026568090509793
38	0x3ef0326fb62d0901	1.5446679195515494e-05
39	0x0000000000000005	2.5e-323
40	0x3f4d7926c73022b1	0.0008994521471104769
41	0x0000000000000000	0.0
42	0x0000000000000005	2.5e-323
43	0x2199747fbc32d8e7	7.962995860883625e-147
44	0x0000000000000005	2.5e-323
45	0x0000000000000005	2.5e-323
46	0x0000000000000000	0.0
47	0x0000000000000005	2.5e-323
48	0x0000000000000000	0.0

exp_avg_sq f8 [7, 7]
0	0x3f286ff31723cdc5	0.0001864418259810275
1	0x3da08dc04e5a2810	7.527758319908338e-12
2	0x3ec021593820b37f	1.9228777441621424e-06
3	0x3ea4c207a808ce3f	6.186345019088383e-07
4	0x36e23a2b5282dafe	2.554178036388372e-44
5	0x3f29f9c113a16007	0.00019817811863975817
6	0x0000000000000000	0.0
7	0x0000000000000000	0.0
8	0x0000000000000000	0.0
9	0x0000000000000000	0.0
10	0x0000000000000000	0.0
11	0x0000000000000000	0.0
12	0x0000000000000000	0.0
13	0x0000000000000000	0.0
14	0x3e83dce8eef46eb0	1.4799035550564008e-07
15	0x3e7bd46726b19943	1.036737075507654e-07
16	0x3f02993fadb1d009	3.547406751006072e-05
17	0x3f14ff370463df4f	8.009694383648052e-05
18	0x0000000000000000	0.0
19	0x3e95dde40889d6e7	3.258401269143322e-07
20	0x0000000000000000	0.0
21	0x3ea1702bc5adb6a8	5.19697901919202e-07
22	0x3bc2a7ebf50a274b	7.901099687457982e-21
23	0x3f10223834b3615a	6.154506734235479e-05
24	0x3f222ff914c6e7b5	0.00013875880757813005
25	0x0000000000000000	0.0
26	0x3eafd73d1b173acf	9.48929075922573e-07
27	0x0000000000000000	0.0
28	0x3ea392b7a33f3181	5.833242711028126e-07
29	0x3bd0c96b9d3c9120	1.421897124956714e-20
30	0x3f1137f394f5df16	6.568359571257026e-05
31	0x3f2367de26ed43f7	0.0001480539972029957
32	0x36d9a2c3227dd8f8	1.7961696593197949e-44
33	0x3eb1c10f784daf77	1.0582293452311071e-06
34	0x0000000000000000	0.0
35	0x3f11c102a76dce06	6.772593211028946e-05
36	0x3e70e12992ffd833	6.288118892236853e-08
37	0x3ea423eb98811d37	6.002281205474561e-07
38	0x3e718750fa06236d	6.529904661966636e-08
39	0x36ccfed554f51b31	1.0157817327052538e-44
40	0x3f12db025ac48218	7.192804213618958e-05
41	0x0000000000000000	0.0
42	0x3a62a7efc0161ab3	1.8837748050981686e-27
43	0x3df6a415f750a102	3.2946933316547743e-10
44	0x399053572bec3c19	2.012279260905911e-31
45	0x3a0912157d35a59f	3.9554496157107985e-29
46	0x0000000000000000	0.0
47	0x3a5ae29579e995d8	1.3573503397243487e-27
48	0x0000000000000000	0.0

step f8 []
0	0x40f3ed4000000000	81620.0

exp_avg f8 [1, 7]
0	0xbf684fc3879e6c81	-0.0029677218380591013
1	0x0000000000000000	0.0
2	0xbf5998099f32216c	-0.0015621274913276374
3	0xbf5a1284421d5ae4	-0.0015913287720274389
4	0xbf5d202d9685abbb	-0.0017776913828935054
5	0xbf60b80cecd7d422	-0.0020408871121113817
6	0xa1befa7fdd5cca13	-3.876347394578791e-146

exp_avg_sq f8 [1, 7]
0	0x3f4a2c6db2a5ce3b	0.0007987533220287843
1	0x0000000000000000	0.0
2	0x3f2a25b19b392d75	0.00019948761984021524
3	0x3f2aadf3c28de67d	0.00020354843698182695
4	0x3f305d2baab13731	0.000249694023925484
5	0x3f3892bce8b7939c	0.00037495719945317986
6	0x3e40c42c5171de0a	7.807417419369697e-09
